Trained_models/model.tflite (tflite, 15372 bytes, 6 tensors)

arith.constant f4 [22, 32]
00000000: f37e dabd 6f41 a6be ca1e c8bd 27f5 913d
00000010: 54fd 143f 7645 a5bf 9ff2 16be cf35 d7be
00000020: c3a5 a23e 6fe4 903d 6c33 06bf 9031 c1bf
00000030: 2227 033f 3c58 1d3f 654f 12bf 2829 5ebf
00000040: acbd cc3e 5bad 5dbf 48ac b73e ee19 b93e
00000050: 1da2 00bf 5f47 a33e 1cd8 ebbe c975 333c
00000060: 1d58 5f3e 68b6 8dbe 0d16 073f a00c 33bf
00000070: 913e 163e b627 f9bc ee6a 50bf 1a85 14be
00000080: d237 75be 3490 783e 78ac 013f c70c 8a3d
00000090: 9c81 2bbf 79ee 073f 73d3 c73e 0f55 da3d
000000a0: e230 1e3d cb0b 81bf 50c4 6bbe 7e2e fdbd
000000b0: ba10 b03e ca5b 8cbf ee9e bb3e 0c18 323f
000000c0: 4bfd a9bd 7ff3 84bd 9f6c 943d dfad d439
000000d0: 91bc 953e cfb4 b93e b94d c9be 4651 3f3d
000000e0: 952a 73be 21cf 80bf 5f47 55be 2ca0 46bf
000000f0: c5e1 9bbe 0119 27be 4edd 52bf 9321 c73e
00000100: d393 833e 5dda 41bf e11f a83e f952 e53e
00000110: ebbd f7be e098 df3e 078f ca3e 4d7a 6dbe
00000120: 4284 0ebf 93db 773d c9bb 883e ce82 cfbe
00000130: 95f6 19bf c8c9 843e 453f 9fbd b31f 3dbf
00000140: cc48 7a3e 8194 bf3e c45e 9ebe 2e30 08bf
00000150: 702b 51bf 97cd 13bf 87fa c9bd 5a8d 8fbe
00000160: 0839 11bf 301d cebe fd25 bd3e 43cb 12bf
00000170: afe6 b23e fbc4 8e3e 7c91 68be 3d34 983e
00000180: 12f6 193e 8205 f7be ae26 093f 950f dc3e
00000190: 532b 863e 22a0 e33e 4ddb 27be bf32 09be
000001a0: 2a2f 263d 2348 aebd 0377 5ebf 6a0f 65bd
000001b0: 80ff b3be c3f2 e73e 8a4c 45bf 3c7b d1be
000001c0: e91f 07bc d7cc f23e fca5 b13e d823 dd3c
000001d0: d586 1ebf f305 1d3d e720 d1be c437 c9be
000001e0: 189f 0bbe 9054 47bf 2f6f 47bf 5dea a6bd
000001f0: 715c 2b3e c6d3 70bd 2cec a6bd 9c87 de3e
00000200: 1f58 fdbe b273 223d b229 a9be 18b1 e13e
00000210: 5a88 243f e984 e93c 98ef 733c 70f8 d4be
00000220: 81d0 a03e 42e3 7fbf caa0 b53e 3041 d13e
00000230: d469 c7be 2ab2 803d aaf5 2abf f0a0 f03e
00000240: 7ceb b13e 6d29 4fbe 8aa0 e7be 6d86 12bf
00000250: 2d03 c53d e486 0b3e 4d1c 123e 2412 3cbf
00000260: 7244 053f 0be8 1dbe 0b4d b4be 4f85 18bf
00000270: 7372 2bbf 078d 293e df18 78bf 7377 94be
00000280: a708 a3be 05c4 7fbd 3f8d 163f c84d 033d
00000290: cfb8 293e 0307 e6bd 0196 a13e 7b5d 043f
000002a0: e971 1abf 29a5 a13d 3e92 373f 9083 e33d
000002b0: 772a eabe 9c93 9e3e 649d b23e 45c8 a83e
000002c0: f506 3fbe e237 8dbd c105 ea3e 73b6 2abf
000002d0: 52fc a8bc 6288 49bf a5b1 3cbf e7a2 84bd
000002e0: 318c debb f894 9bbd da0a 1f3f 1796 5e3d
000002f0: 4f9c a43e 3d82 41bd 491e 57bf 8d85 203e
00000300: 57a4 2fbf a029 163e ee05 0bbf 69df 8bbe
00000310: ce5c 61bf 8f11 c0be 05b1 83bd 91be 833e
00000320: c5a0 3fbf 7684 fc3e 49d4 a6be 111c 8f3e
00000330: 20b6 c8be cca5 2bbf 1300 653d c85b d93e
00000340: 8f4b a8bd e8e5 88bf 389c cd3d 799a 03bf
00000350: bae1 f93e 02be cf3e 2653 dabe c285 3fbf
00000360: a8ab c43d 5ced de3e 58d2 113d 6538 23be
00000370: d5a1 28bf 588c 84be 15fc 2c3e 8401 b3be
00000380: 8420 16bd a2fc ec3e 6bc8 39be bb59 2ebe
00000390: 4f47 253d 3132 f0bd f1d8 0a3f 5b2c 19bf
000003a0: 9ae7 40be 2aeb 813e f653 25bf b0a2 e0bd
000003b0: 2b39 efbd a1ab 96be 391b 93be 7504 963e
000003c0: f7b2 8c3e 2c3f f1be 9918 6cbf 5e40 6fbf
000003d0: e6d7 6abc 5b85 8dbe 5f89 b73e 8113 0bbf
000003e0: 6b65 cb3e 7ae8 00be 0f32 afbe 9b66 78bf
000003f0: 448f 4cbf d383 0a3f 9df5 3ebf 2a83 803e
-0.10668745 -0.32471797 -0.097714975 0.07126837 0.5819905 -1.2911823 -0.1474099 -0.4203324
0.3176709 0.0707482 -0.52422214 -1.509325 0.51231587 0.6146276 -0.57152396 -0.8678155
0.39988458 -0.86592644 0.35873628 0.36152595 -0.50247365 0.3189039 -0.46063316 0.010953375
0.21810956 -0.27678227 0.5276802 -0.6994114 0.14672305 -0.030414443 -0.8141316 -0.14503899
-0.23947075 0.24273759 0.5065379 0.06740718 -0.66994643 0.53098255 0.3902851 0.10660755
0.038620837 -1.0081724 -0.23024106 -0.12362383 0.3438776 -1.0965512 0.3664469 0.6956794
-0.08300265 -0.06491756 0.0724728 0.00040565335 0.29245427 0.36270759 -0.3931711 0.046708368
-0.23746713 -1.0063211 -0.20828007 -0.7758815 -0.30445686 -0.16318132 -0.82368934 0.38892803
0.25698718 -0.7572382 0.32836822 0.44789866 -0.48387083 0.43671322 0.39562246 -0.23191185
-0.5567056 0.060512137 0.2670577 -0.40529484 -0.6014188 0.25935197 -0.077757396 -0.73876494
0.24441832 0.37417987 -0.30931675 -0.53198516 -0.81706905 -0.5773558 -0.098622374 -0.2803753
-0.5672765 -0.40256643 0.36943045 -0.573414 0.34941623 0.2788466 -0.22711748 0.29727355
0.15035275 -0.4824639 0.53574646 0.42980638 0.2620493 0.4445811 -0.1639225 -0.13398264
0.040572323 -0.08509853 -0.8690035 -0.055922903 -0.3515587 0.453024 -0.77069914 -0.40914333
-0.008247354 0.47421905 0.3469695 0.02699463 -0.6192449 0.03833575 -0.40845415 -0.39300358
-0.13634908 -0.7786341 -0.7790403 -0.0815017 0.16734482 -0.058795713 -0.08150515 0.43462837
-0.49481294 0.039661117 -0.33039623 0.44080424 0.64270556 0.02850576 0.014888667 -0.41595793
0.31409076 -0.9995614 0.35474235 0.40870047 -0.38947928 0.06283982 -0.66781104 0.46997786
0.34749973 -0.20230646 -0.4523967 -0.5723637 0.09619746 0.13625675 0.14268608 -0.7346518
0.52057564 -0.15420549 -0.3521503 -0.5957841 -0.6697151 0.16557704 -0.9691295 -0.28997383
-0.3184254 -0.0624428 0.58809274 0.0320566 0.16574405 -0.11231806 0.31559756 0.5170514
-0.60330063 0.0789283 0.7170752 0.11109078 -0.45735523 0.30971992 0.34885705 0.32965294
-0.18654998 -0.068954244 0.45707515 -0.66684645 -0.020628128 -0.7872373 -0.73708564 -0.06476384
-0.0067916145 -0.07596773 0.62125933 0.054342356 0.32150504 -0.047243346 -0.84030586 0.15675946
-0.6861014 0.14664316 -0.54305923 -0.27318886 -0.88032234 -0.37513396 -0.06430248 0.25731328
-0.7485469 0.4931981 -0.32583836 0.279511 -0.3920145 -0.6704986 0.055908274 0.42452836
-0.08217537 -1.0695162 0.10039562 -0.5140758 0.48805028 0.40574652 -0.42641562 -0.74813473
0.09603053 0.43540466 0.03560099 -0.15939482 -0.65871936 -0.25888324 0.16893037 -0.34962094
-0.036652103 0.46286494 -0.1814286 -0.17026417 0.04035121 -0.11728323 0.54237276 -0.59833306
-0.18838349 0.25374728 -0.6458124 -0.1096853 -0.11680826 -0.29427817 -0.28731707 0.29300275
0.2748029 -0.4711851 -0.92225033 -0.9345759 -0.014333701 -0.27640805 0.35846993 -0.54326636
0.39725813 -0.12588683 -0.3421788 -0.97031564 -0.79906106 0.541074 -0.74593526 0.2510007

arith.constant1 f4 [32, 64]
00000000: c9a4 07be 45e1 bebe 4c0d 9abc ec82 e6be
00000010: 5620 8dbd 6f9f 9a3d 1961 9a3b 8ee4 4c3e
00000020: 371c 0b3e 0927 02bf b9fc 4e3e 3b17 4fbf
00000030: 0513 513e cc41 493e 47b2 793e a8d1 1a3f
00000040: 2837 9d3e c4d0 bf3d 4e9a 0f3f 4b1a 983e
00000050: e2aa ac3e 09d8 273e e7eb 5dbd 82a1 64bd
00000060: ae9d a1be cf1f fabc 4f0c e5be dd1a 6b3d
00000070: c476 553e 599b 3a3e 5e32 70be 11ec 0abe
00000080: fd7e f5be 8b8c fe3e 6a06 353e cee0 a03e
00000090: 0028 b13e 2a4b ca3d 6021 c0be 13c8 db3e
000000a0: 7e41 4a3e 3bea a83e 021a b63e 20f5 743e
000000b0: d4e7 33bd 4fea 563d 55ca 333e 14c2 5fbd
000000c0: 9fbe 06be 3bc1 1bbe 0218 093e 6f22 dabe
000000d0: d0a8 b8be 0e8f d8bd 0ce9 f73e 813f 3fbc
000000e0: 78d2 51bd 8ec6 ff3e d07b 253f 0e75 363d
000000f0: c350 9b3b 39d0 563e f889 c03d 7ab4 543e
00000100: bc1a 8fbe c0bf fd3e 45a0 f93e d1c9 0a3f
00000110: c722 dd3e 20c6 7dbe 5a3d 113f 601a b13e
00000120: 11b2 18be 6da0 18bf 075f 083e eaff ffbe
00000130: 3399 e23e 6001 183f 6964 623e 6e93 263d
00000140: dabd c93d f1e8 d83e f080 a53d 35fa a83e
00000150: 274c d2be 9a13 873e 60ea 46bc 2373 ce3e
00000160: 7b0c f7be 058d 3c3d 2fb1 c4be 6278 393e
00000170: 8e69 8a3e b1bc 70be 22b6 0e3f 54cd 0bbe
00000180: 23db 85bc 7eb6 b4be 3f3e ebbe f2e4 4bbf
00000190: c9c5 d8be 4902 a33e 9468 a9bd f257 d23e
000001a0: b240 c03d 65de 1ebc 3737 3d3e d999 063e
000001b0: 63ba be3d a105 e53d 5eca 853e 6f1c 9fbe
000001c0: 1d8f 003d c41d f33d 6af1 f13d 8009 b7ba
000001d0: 3434 74be a83e 62be b0bb 063f 1a74 15be
000001e0: 2091 96bb 7b85 053f ef3f f73e 31f0 eebe
000001f0: cb54 b1be f626 ad3e 26d4 183c 188d 2b3f
00000200: c968 ee3d 3905 99bc 0d9b 203f 1217 11bd
00000210: 7a6f 93be 228b 07bf 1d33 b43d ed84 603e
00000220: 4daf e6be 80fe 24bd a169 353e 573f 2ebe
00000230: 28c4 5ebe c4b8 e5bd 9f85 a4be b88e c2be
00000240: bf6e 103e a259 6cbe 9416 f83d 943d 633b
00000250: 6e98 a1bd e751 073d f139 063f 91fd aebe
00000260: 3e17 873e 55b9 e03d bf08 d03d 34d0 053f
00000270: f609 ca3d 6472 563e 00b9 62be 2e23 143f
00000280: 7ff3 e03d ba13 3ebe 5be3 8fbe fcb2 ba3e
00000290: 4c0c 1e3e 475f 04be d681 ef3e 4cb3 433e
000002a0: cd91 5bbd 2351 573e e78b 213e 778d 81be
000002b0: 4c87 a63e 81f3 e8bc fa6d 5e3d 5f4d 05be
000002c0: 9cb0 b73e 82a9 4a3e 9205 f73d 0a89 dcbe
000002d0: 8e35 ea3e ea17 debd a471 19be 2e24 11bf
000002e0: f830 8fbe 5435 73be 4955 be3e ac6e cb3e
000002f0: 1e70 633e f04c b5be 6d95 0ebe 6a72 9d3e
00000300: 98c6 153f 753b 9b3d ff3d db3c bd16 b23d
00000310: 91b3 273e 08fb 0bbf d42a 743e fd7e 8d3e
00000320: 1797 e2be 70cb 6e3e e59b 063e b8c7 2d3d
00000330: ba66 83bd 4aac cf3e b0f2 e5be 5907 133e
00000340: bf22 d5bd 65e2 22be 2fa9 b03e 11f9 7d3e
00000350: abab e73e ed33 7c3c 4a7b 81bd 09f8 c43d
00000360: 3285 a2bd 3a2f 5b3e 679d 973d 0644 d33e
00000370: 06b0 f03e 26db 173f 1b98 903e 0cbe 213f
00000380: 1ac2 91be bb2d cdbd 57ef bebd 647b 423e
00000390: 73f4 763e 0a01 ff3e d2bb 1c3e d3af f13e
000003a0: 30c2 2cbe 3389 c33c acaa e63e b573 8bbe
000003b0: 7da9 213f 321b f03b 8b1f 153e 5188 6bbe
000003c0: f4a9 303d 0af3 96be 36fc 293f 057a abbe
000003d0: 5475 913e 4f65 b03e bdcb 953e 6f5a d4be
000003e0: 7bab 833e 1f09 1dbe d277 923e 0ccc e73e
000003f0: 9028 153f fe0f 983e a320 963e 1a4f af3c
-0.13246454 -0.37281242 -0.018805169 -0.4502176 -0.06890933 0.07549941 0.004711282 0.20009062
0.13584982 -0.5084081 0.20213594 -0.8089482 0.20417412 0.19654006 0.24384414 0.6047616
0.30706143 0.09365991 0.56094825 0.2970756 0.33724123 0.16391005 -0.054180052 -0.05581809
-0.31565613 -0.030532746 -0.44735953 0.057398666 0.20846087 0.18223323 -0.23456714 -0.13566615
-0.47948447 0.497166 0.17678228 0.31421512 0.3460083 0.09877618 -0.37525463 0.42926082
0.19751546 0.32991204 0.35566717 0.23921633 -0.04392226 0.052469548 0.17557652 -0.054628447
-0.13158654 -0.1521043 0.13388065 -0.42604396 -0.36066294 -0.105741605 0.48419988 -0.011672855
-0.05122611 0.49956173 0.6464205 0.044545226 0.004739852 0.20977868 0.094013155 0.20771971
-0.27950084 0.49560356 0.48755088 0.542142 0.43190596 -0.2478261 0.5673424 0.34590435
-0.14911677 -0.5961979 0.133175 -0.49999934 0.44257507 0.593771 0.22108616 0.040667944
0.098506644 0.4236522 0.080812335 0.33003393 -0.41073725 0.26382142 -0.01214084 0.40322217
-0.4825171 0.046032924 -0.3841643 0.18112329 0.27033657 -0.2350948 0.5574666 -0.13652545
-0.016339844 -0.3529548 -0.45945928 -0.7964622 -0.42338398 0.3183768 -0.082719 0.41082722
0.0938734 -0.009696578 0.18478094 0.13144626 0.09312894 0.11182714 0.26130956 -0.3107638
0.031386483 0.11870912 0.11813624 -0.0013964623 -0.23848039 -0.22094214 0.5263014 -0.1459507
-0.004594937 0.521568 0.48290965 -0.46667627 -0.34635004 0.33818787 0.009327924 0.67012167
0.1164108 -0.018679248 0.6273659 -0.035422392 -0.28795987 -0.52946675 0.087988116 0.21925707
-0.4505562 -0.040281773 0.17716075 -0.1701635 -0.21754515 -0.11216882 -0.32133195 -0.3799951
0.14104746 -0.23081067 0.121136814 0.0034674155 -0.07890402 0.033037093 0.5243216 -0.3417783
0.2638492 0.10972849 0.10157918 0.5227082 0.09865181 0.20942074 -0.22140884 0.5786618
0.10983943 -0.18562213 -0.28103146 0.3646468 0.15434378 -0.1292697 0.46778744 0.19111365
-0.053605843 0.21027045 0.15776025 -0.25303242 0.32525098 -0.028436424 0.0543041 -0.13017796
0.3587693 0.19791225 0.12061609 -0.43073303 0.45743984 -0.10844405 -0.14984757 -0.5669583
-0.27967048 -0.23750812 0.37174442 0.39732873 0.22210738 -0.3541026 -0.13924189 0.30751354
0.58506155 0.075797 0.02676296 0.08695743 0.16377093 -0.5467992 0.23844463 0.27635947
-0.44255897 0.23319793 0.13145407 0.042426795 -0.06416078 0.40561134 -0.44911718 0.14358272
-0.10407018 -0.15906675 0.34504077 0.24802043 0.4524816 0.015393239 -0.06322344 0.096176215
-0.07935561 0.21404734 0.07403069 0.41262835 0.47009295 0.5931877 0.28241047 0.63180614
-0.284684 -0.10018488 -0.09322994 0.18992382 0.24116687 0.4980548 0.15306023 0.47204456
-0.16870952 0.023869133 0.45052087 -0.27236715 0.63149244 0.0073274607 0.14562814 -0.2300122
0.04313083 -0.294823 0.6640047 -0.3349153 0.28409827 0.34452292 0.29257002 -0.41475245
0.25716767 -0.1533551 0.2860704 0.45272863 0.5826502 0.296997 0.29321775 0.021400023

arith.constant2 f4 [22]
00000000: 1d90 efbd a957 e63d d171 7bbd f9cc c0bd
00000010: 52c2 bf3b f81e 67be d289 ba3b 0642 403e
00000020: 16c5 27be 6706 3e3e 99c2 c03c 6bf9 8fbd
00000030: 6c8f a1bd 3272 ea3d 523f 0abe 0fe5 b73d
00000040: 67c1 7abe a748 d33d 4134 643d aaee a9bd
00000050: 9684 8b3e 69eb cb3c
-0.11697409 0.112471886 -0.06138784 -0.094140954 0.005852022 -0.22570407 0.005692699 0.18775186
-0.16383776 0.1855713 0.023530291 -0.070299946 -0.07888684 0.11447562 -0.13500717 0.08979236
-0.2448784 0.10316592 0.055713896 -0.08297475 0.27249593 0.024892526

arith.constant3 f4 [32]
00000000: 3cfc 0c3c 03a3 2dbd cb5c 0fbc 0695 8bbc
00000010: ced0 a7bd 710f b33e c5e1 ca3e 7f98 c8bc
00000020: 20ae 583e e859 4d3e 3867 e6bd 4cbd 103e
00000030: ff99 4c3e d60d 9bbd 748d 3f3e 90af b73e
00000040: 5676 623e e8e5 503e 8f60 3fbe f7b2 b53d
00000050: 9c47 3d3c 6693 663e dd7a 9e3e f506 b43e
00000060: 6ee9 d5bc 62aa 8d3e 919d 0bbe 29d5 813d
00000070: 47f1 dc3c 38f3 8d3e e2a4 6a3d 393a 1b3e
0.008605059 -0.04239179 -0.008750151 -0.017038833 -0.08194123 0.34972718 0.39625373 -0.024486778
0.21160173 0.20053828 -0.11250156 0.14134711 0.1998062 -0.07570998 0.18706304 0.3587613
0.22115454 0.20400202 -0.18689178 0.088720255 0.011552718 0.22517166 0.30953112 0.35161558
-0.026112285 0.27669054 -0.13634326 0.06339485 0.026970519 0.27724624 0.05728615 0.15158929

sequential_1_1/dense_3_1/BiasAdd/ReadVariableOp f4 [64]
00000000: 9f5b 933e 9611 093f 5be8 f13d 43e1 ee3e
00000010: 9e97 233f b1fe 2e3e f9ec 073e 5f61 273e
00000020: ff47 703e afa9 c43e 4f9e ab3e a0a9 f43c
00000030: e901 153f 035f 133e dd50 a63e c604 ee3e
00000040: be07 b7bd 52b8 b23e 6684 b53d f62b ca3e
00000050: a15f 283f aee1 603e 3365 bf3e 0345 133f
00000060: bae7 233f ca83 5a3e 86bb fd3e e0eb 5c3e
00000070: 026d d03e 8951 f53e a2b3 023f 1f7a 5e3e
00000080: 7b4f c93e 1977 8b3e 382e 4e3e a5a1 f83e
00000090: f3e3 443f a060 ff3e 5393 ca3e 5ec2 2b3e
000000a0: 27d0 ad3e e7e7 5bbe e3ce fa3d b186 2b3e
000000b0: bd70 253d d21a c43e 1bd5 f23d 15f8 ed3d
000000c0: 9fe4 c63e 4595 133f 5636 ec3e 9e6a 163f
000000d0: e8ae fa3e 22e7 123f b933 663b d9b6 d63e
000000e0: 95a0 1b3e 3c3a 633e dda3 023f d99f fa3d
000000f0: 33ab ac3e a39e 643e ba52 1a3e cdee c13e
0.2878084 0.5354246 0.118118964 0.46656236 0.63903224 0.17089345 0.13273992 0.16345738
0.23464964 0.38410708 0.33519217 0.02986604 0.5820604 0.14391713 0.3248357 0.46488017
-0.089370236 0.3490625 0.088631436 0.39486665 0.6577092 0.2196109 0.37381896 0.5752718
0.6402546 0.21339336 0.49557132 0.21574354 0.40708166 0.4791377 0.5105535 0.21726273
0.3931845 0.27239302 0.20134819 0.48560825 0.7691032 0.49878407 0.39565524 0.16773364
0.3394787 -0.21475182 0.12246492 0.167506 0.04039072 0.38301712 0.11857053 0.116195835
0.388463 0.5764964 0.46135205 0.58756435 0.48961568 0.5738393 0.0035126044 0.41936377
0.15197976 0.22190183 0.51031286 0.1223752 0.33724365 0.2232614 0.1507062 0.37877503

sequential_1_1/dense_3_1/MatMul f4 [64, 7]
00000000: 7684 f93e fd1f 69be f3e6 36bf c745 65bf
00000010: 2104 93bd 8a20 0ebc 55d5 ad3e e505 02bf
00000020: 8231 143d f12e 5ebf 9691 773e 8bc0 293f
00000030: cf06 803e a4e5 31be c0cd e13d 0aec f7be
00000040: 1f82 2ebf f85f 253e 6c23 edbe 2c53 f7bd
00000050: cc42 22bf caac dcbe a62f 083e 2da1 62bf
00000060: eafb dfbd 2575 993e b9b2 94bc f4e8 3ebe
00000070: 4219 abbe e16b 883e e551 5dbf 3083 babe
00000080: 129b d93e cea2 58be c103 68be 04b7 1fbe
00000090: aa85 cbbc 0eea a53e 9187 8e3e f798 7a3f
000000a0: 33f0 a5be 39ac 2e3f bb12 a43d b1ed 55bd
000000b0: a3e1 45bf 42a2 883e c324 dd3e 3300 a63e
000000c0: d05e a3be e08a c9be 32cb 103e e6c7 29bd
000000d0: 02c4 083f 06ec cdbe 3522 bfbe ccb9 78bf
000000e0: ca0e 023e aa85 c63e 45bb c03e 4e04 ab3d
000000f0: 1ca8 6c3f 327b abbe 4e0a 3d3f 1f06 403e
00000100: 2597 19bf 7ae0 99be a7d2 583e c34e 0abf
00000110: ea6a 51be 770b 153f 9dcc 88be deee 91bb
00000120: ae1d 323d 98c6 aebe 40d1 c9be 8b16 903e
00000130: e48a 22bf 2399 c2be 4993 16bf 4bca 85bd
00000140: 9175 1d3d 711f 263f e3df 6b3e f293 1d3f
00000150: 8ba1 d83e d359 d33e 270e adbe 30ec a63e
00000160: c823 813e c429 88bd 5ff5 8cbe 7621 9bbe
00000170: a797 593d 1d3a 84bf 05eb dc3d 1211 833d
00000180: f7a2 1c3f 8ead 33bf b95f 943d 3b0d c0bc
00000190: 54e5 133f d695 9e3d e77d d43e dd7b 23bc
000001a0: 28a1 87bf 6ee4 0bbe 6fbc 593f e5c6 d4bd
000001b0: 217a 5f3e 36d4 4abe 4ca5 54be b951 833e
000001c0: 964e e03d 1b3f fcbd 2970 cc3d 4b51 433f
000001d0: c169 fe3d 170d 02bf 4765 e4be 0114 253e
000001e0: e65d 9b3e 0b4c dfbe b666 173d 7648 263e
000001f0: 6645 e23e e393 a43e 161c 133f 5e37 b23d
00000200: 3008 0a3d 2049 b73e 881e 613f 92eb 3abd
00000210: 362f 49be 1301 e93e 874d 5ebe c3e9 fbbe
00000220: b82d f43e ba17 d3bd c9f3 493e 0621 36be
00000230: 171e 8a3e f43e c63e 55f5 9a3e 6093 debe
00000240: 8c3c aabc 4142 2dbf 046e ee3b 911b 1dbe
00000250: 7b29 163d 49d8 1ebf bf63 2e3f ee3d 9dbd
00000260: 5339 133d 21d7 98be b101 a7be ca9f 30bf
00000270: ac22 29be b2ce d8be 8545 46be 84ee f9bd
00000280: 4dd4 25bf 7a1b 5dbe 5163 083f 7c78 1abf
00000290: 2044 9d3e 3b37 a6bd ebce 97bd b7f1 ce3e
000002a0: d56f 36be 4cf6 ecbe 8a5c e73e 5977 7a3b
000002b0: 7f35 1dbe 5921 033f 3168 703e 8bff d8be
000002c0: 37b2 513e 605c 3dbf 716d 633e e33b 51be
000002d0: b2ad 9ebe 4676 2a3f 9001 15bf c08d 13bf
000002e0: b856 69be 144c d33d d0fe be3d 5ce3 51bf
000002f0: 6b28 8f3e 1811 e53e a677 28bf dc06 67bf
00000300: 538e 2f3c 6ed0 9f3e eb72 b7be e4f2 6dbe
00000310: f5dd b2bc f5b9 013f 482a 8cbe 1f0c 80be
00000320: a761 2abf 4eee 0f3e 38af bc3e 1d47 e63e
00000330: 5a9c cfbc 6b36 f83e 21ff 67bf 3fb7 81be
00000340: ffa8 073e 577c 17be 0e7e e6be bcb4 b73e
00000350: f76b 3dbf 65ef 443e db50 543d 03db 7abe
00000360: 6385 0d3e 4f62 4bbe 4106 58bf 54f5 89be
00000370: 8d5f 023f e624 4fbf 070c 003c 0a45 a33e
00000380: 2a22 afbe 5f59 1bbf 26ca 163f fad4 873e
00000390: 627d 533f 96d5 813e 92a4 2dbe c08b c13e
000003a0: f7d1 d13e df41 803e 6847 6fbe 4b20 493f
000003b0: 303c 8a3e c543 ea3e a81e a63e 1f20 11bf
000003c0: abb2 183f 8d67 923e a834 ca3e 72e8 8bbe
000003d0: 9d71 033f e6fc babe 5d2e 04bf d7a2 143f
000003e0: 9cfc 203e dbb2 1cbf c038 103e 86ca 133e
000003f0: 1572 153e 68b1 fd3c 8a84 a03e 2e93 633e
0.48733872 -0.22766109 -0.7144615 -0.89559597 -0.07178522 -0.00867475 0.33951822 -0.50790244
0.036180027 -0.86790377 0.2417663 0.6630942 0.25005195 -0.17372757 0.11025572 -0.4842227
-0.681673 0.1614989 -0.46316087 -0.12076411 -0.63383174 -0.43100578 0.13299426 -0.88527185
-0.10936721 0.29972187 -0.018151628 -0.18643552 -0.33417708 0.26644805 -0.86453086 -0.36428213
0.42501122 -0.21155855 -0.22657682 -0.15597159 -0.02484401 0.32405132 0.27837804 0.97889656
-0.3240982 0.6823154 0.08011385 -0.052228633 -0.7729742 0.26686293 0.4319211 0.32422027
-0.31908274 -0.39363766 0.14140013 -0.041450404 0.53424084 -0.40219134 -0.37330785 -0.97158504
0.12700954 0.38773853 0.37642875 0.083504304 0.92444015 -0.33492428 0.7384385 0.18752335
-0.59996253 -0.30054075 0.21174107 -0.5402643 -0.2045094 0.5822062 -0.26718608 -0.004453524
0.043485336 -0.3413589 -0.39417458 0.281422 -0.6349318 -0.3800746 -0.5881849 -0.06532725
0.0384422 0.64891726 0.23034625 0.6155387 0.42310748 0.41279468 -0.3379986 0.32602072
0.2522261 -0.06648591 -0.27530953 -0.30298966 0.053123143 -1.0330235 0.10787014 0.0639974
0.61186165 -0.701867 0.0724482 -0.023443809 0.577718 0.07743423 0.41502306 -0.009978262
-1.0596056 -0.13661358 0.8505315 -0.103894986 0.21823932 -0.19807515 -0.20766181 0.25648287
0.10952489 -0.12316724 0.0998233 0.7629592 0.12422515 -0.50801224 -0.44608518 0.16120912
0.30345076 -0.43612704 0.036963187 0.16238579 0.44193572 0.3214408 0.5746473 0.08701967
0.033699214 0.35797977 0.8793721 -0.045634814 -0.19646916 0.45508632 -0.21709262 -0.49201784
0.4769113 -0.1030726 0.19721903 -0.17786035 0.26976082 0.38719904 0.30265298 -0.43471813
-0.020780824 -0.6767922 0.0072762985 -0.15342547 0.036660653 -0.62048775 0.6812095 -0.07677828
0.03594334 -0.2985163 -0.32618478 -0.6899382 -0.16517133 -0.42345196 -0.19362457 -0.12203696
-0.6477707 -0.21592513 0.53276545 -0.60340095 0.30716038 -0.08116003 -0.07412513 0.4041879
-0.17816098 -0.4628166 0.4518779 0.003821811 -0.15352438 0.5122276 0.23477246 -0.42382464
0.2047814 -0.7396908 0.22209717 -0.20433001 -0.30991894 0.6658672 -0.5820551 -0.5763817
-0.22786987 0.10317245 0.093259454 -0.8198755 0.27960524 0.44739604 -0.6580757 -0.9024484
0.010715085 0.31213707 -0.35829863 -0.23237187 -0.021834353 0.5067437 -0.27376008 -0.25009248
-0.66555256 0.1405575 0.3685243 0.4497613 -0.025343109 0.48479018 -0.9062367 -0.25335118
0.1324806 -0.14793526 -0.45018047 0.35880077 -0.73992866 0.19231947 0.051834922 -0.24497609
0.13820414 -0.1986172 -0.8438454 -0.26944983 0.5092705 -0.8091568 0.007815368 0.3188861
-0.34205753 -0.60683244 0.58902204 0.26529676 0.82613194 0.25358266 -0.1695731 0.37801933
0.40980503 0.25050256 -0.23367083 0.785649 0.26999044 0.4575483 0.32445264 -0.5668964
0.59647626 0.28594628 0.394933 -0.2732578 0.51345235 -0.3652107 -0.51633245 0.58060974
0.15721363 -0.6121041 0.14084148 0.14432725 0.145943 0.030968383 0.3135112 0.22224113
