Main/Trained_models/model.tflite (tflite, 20164 bytes, 8 tensors)

arith.constant f4 [22, 32]
00000000: 8e02 a23e 20b6 c4be cb0c c63e 1a6f d83e
00000010: 9793 84be c69f 463f 2da3 433f 064b 1f3f
00000020: ad74 31bf 8715 bebe 449f 243f ff38 3c3e
00000030: f0c8 fb3e 066a 053f ce58 443f 651a 2dbf
00000040: e278 3f3f d135 1ebf 260b 0a3f 365a 74bf
00000050: 61e6 90be 632b 3fbf 326a 65bf aec6 293f
00000060: bb5b 123f 494d 1e3f dc07 1cbf 7b96 34bf
00000070: 7115 0abf ac1a 07bf 17d0 39bf a4ea 523f
00000080: 3294 efbe 7e23 44bf ab26 c2be 892c 233f
00000090: 4bc6 203f 0f01 5b3f 5169 70bf 3e6d 77be
000000a0: 62a7 b4bd 3844 b03e 9b52 733f 5e8e 0bbf
000000b0: b044 9f3e 28a6 febe 1593 64bf eadd c43e
000000c0: 0c22 193f 2d71 27bf 6e33 87bf a214 843f
000000d0: 8e33 063f 6fac 38bf f378 5d3f 625e 41bf
000000e0: bf0c 08bf cc52 e4be ef37 32bf bda5 0e3f
000000f0: 226f 2c3f 1697 003f 8e70 50bf 5d1c 12bf
00000100: 522a 2bbf 9649 97bf d401 9ebe 8f8f f5be
00000110: 7017 6d3f d69c 13bf f5de 1fbf a9c8 2c3f
00000120: 0d80 433f d09c 78bf fb89 7d3f 885b e6be
00000130: 4801 56bf 88f9 c0be 50ac 613e a9ac c5be
00000140: 3961 86bf 4af8 d2be 70fd 533f 357f 393f
00000150: c4e2 253f ebe5 763f 6c9d 5e3f 807f 843f
00000160: e5f4 41bf c530 593f 1b48 793f 9f0e 843f
00000170: 15bd 8c3f e93b b83e 82eb 623f 3c47 a1be
00000180: 6e84 15bf b9e9 553f f0d9 443f 654e 91bf
00000190: 15f2 483f 5316 4cbf 89a6 40bf 1b5c 92be
000001a0: 4063 4d3f 2c1e 65bf 463c 423f 1398 04bf
000001b0: b13d 2ebf 60d0 16bf e6da 60bf fe0e 463c
000001c0: 8425 54bf a72d 09bf 7b1b 50bf 8608 54bf
000001d0: 1056 49bf 0ebb 503f 4c3a 513f 54a6 603f
000001e0: 3cee 6a3f 6abe 343f fa88 903f 4a79 04bf
000001f0: 3166 35bf e472 d23e 292d 44bf 7163 fabe
00000200: bf02 1e3f 9b24 343f df46 ddbe 8805 e93e
00000210: 7dd7 203f f205 3f3f f878 47bf 2001 94be
00000220: d791 1cbf 654f 193f 78db e83e 874b 31bd
00000230: af14 f53e 1a3c 1bbf 0693 75bf 80a2 283e
00000240: b6c9 70bf b6b9 d3be 606a dcbe e2f1 4abf
00000250: 7d3a 5fbf 4679 403f f371 453f 3d8b 28bf
00000260: fb08 543f de58 1e3f 67cf 723f 54e5 5e3f
00000270: d87c 51bf 4928 2bbf ee61 55bf 1f19 40bf
00000280: eb97 2b3f 8dda 0fbf 8c09 ac3e de40 70bf
00000290: 1ac7 48be 8b76 583f b6c5 56bf e132 123f
000002a0: 6eed 0eba d4e1 0abf 9282 f7be b28c e93e
000002b0: 489e 06bf 7e5a 1fbf 8d9f 82bf 8d7b 0ebf
000002c0: 0015 54bf f0a1 00bf b4e9 493f 47f3 153f
000002d0: 0886 1abf e8a0 b3bd 31bf 3e3f 3f5a 9a3e
000002e0: 84f7 98be 0463 82bf 6471 8b3f 2968 2abf
000002f0: 147b 21bf 0f8b 1abf 92a1 50bf 240f 48bf
00000300: 6be5 23bf 20f8 683e 657d b1be 6f98 96bf
00000310: 73ff 32bf 8fac 83bf 800e 183f f5c7 72be
00000320: 7068 23bf 2c64 6fbe 6225 06bf a0c5 113f
00000330: fb2f f5be 5acd 753f e459 61bf 664a 27bf
00000340: d8bc 0f3f c800 873f cc1e 5b3f 43a8 6bbf
00000350: e9e5 59bf 6a15 343f 1b69 523f d31d 603f
00000360: b7e6 debe efe0 79bf 21cf 47bf 75c0 483f
00000370: 92e0 2cbf 33b4 5f3f 8842 10be 18a6 67bf
00000380: bfd5 babe 939e 223f 6e8b ddbe f137 e03e
00000390: e956 053f d486 4c3f 7322 52bf 99a7 02be
000003a0: 12b8 01bf 0c16 433e a668 f2be 5ee3 1cbf
000003b0: 88af 803e e084 283f 6bdc 66be a55e bd3e
000003c0: fc20 6dbf 311f a6be cb7e 593f d5e1 5abe
000003d0: 3921 223f 762b 073f 61ec 733f 6816 2f3f
000003e0: e5cd b2be 2a3f 9cbf 5b5c 9bbe 2ceb f2be
000003f0: e890 27bf 0792 2dbf 836a 703f 559e 52bf
0.31642574 -0.384202 0.38681635 0.42272264 -0.25893852 0.77587545 0.7642086 0.6222385
-0.6931866 -0.371258 0.6430552 0.18381117 0.4917674 0.52114904 0.76698005 -0.676184
0.7479383 -0.6180087 0.5392326 -0.9545015 -0.28300765 -0.7467558 -0.89615166 0.66318786
0.5717122 0.6183668 -0.6094949 -0.70542115 -0.53938967 -0.52775073 -0.72583145 0.82389283
-0.46792752 -0.76616657 -0.37920126 0.6373983 0.6280257 0.8554849 -0.939107 -0.24162766
-0.08820988 0.34427047 0.9504792 -0.5451411 0.31107092 -0.49736142 -0.8928693 0.38450557
0.59817576 -0.6540707 -1.056257 1.0318797 0.52422416 -0.7213811 0.8651268 -0.7553464
-0.5314445 -0.4459442 -0.696166 0.55721647 0.67357075 0.5023054 -0.81421745 -0.5707453
-0.6686145 -1.1819332 -0.3086077 -0.4796109 0.9261389 -0.5766119 -0.6244958 0.67493683
0.76367265 -0.97114277 0.99038666 -0.44991708 -0.83595705 -0.37690377 0.22038388 -0.38608292
-1.049842 -0.41205055 0.8280859 0.7245973 0.6479914 0.96444577 0.86958957 1.035141
-0.75764304 0.8484004 0.9737565 1.0316962 1.0995203 0.35983208 0.88640606 -0.3149966
-0.58405197 0.8355976 0.76895046 -1.1352049 0.7849439 -0.79721564 -0.7525411 -0.28585896
0.8022957 -0.89499164 0.7587322 -0.51794547 -0.68062884 -0.58911705 -0.8783401 0.012088535
-0.82869744 -0.53585285 -0.8129193 -0.82825506 -0.78646946 0.8153542 0.8172958 0.87753797
0.91769767 0.7060305 1.1291802 -0.5174757 -0.70859057 0.4110328 -0.7663141 -0.48903993
0.6172294 0.70368356 -0.43218133 0.45512033 0.6282881 0.74618447 -0.7791896 -0.28907108
-0.61160034 0.5988677 0.4547994 -0.04328492 0.47867343 -0.6063858 -0.95927465 0.16468239
-0.94057786 -0.41352624 -0.43049908 -0.79275334 -0.8719862 0.7518505 0.77127 -0.6583746
0.82826203 0.6185435 0.9484772 0.87068677 -0.8183112 -0.66858345 -0.83352554 -0.7503833
0.67028683 -0.5619286 0.33601034 -0.9384898 -0.19607201 0.8455588 -0.8389543 0.57108885
-0.000545225 -0.54250836 -0.48341805 0.45615155 -0.5258527 -0.62247455 -1.0204941 -0.55657274
-0.82844543 -0.50247097 0.7887223 0.58574337 -0.60360765 -0.08770925 0.74510485 0.30146977
-0.2987634 -1.0186467 1.0893979 -0.66565186 -0.6307843 -0.60368437 -0.81496537 -0.781481
-0.6402194 0.22750902 -0.3466598 -1.1765269 -0.69921035 -1.0287036 0.59397125 -0.2370909
-0.63831234 -0.23378056 -0.5240079 0.56942177 -0.4788817 0.96016467 -0.8802779 -0.653479
0.5614753 1.0547113 0.8559387 -0.9205362 -0.8511644 0.70345175 0.8219163 0.8754551
-0.43535396 -0.97608846 -0.7805043 0.78418666 -0.6753017 0.8738434 -0.1408788 -0.90487814
-0.364912 0.63523215 -0.4327044 0.4379268 0.5208574 0.7989323 -0.82083815 -0.12759246
-0.50671494 0.19051379 -0.47345465 -0.61284435 0.2513392 0.6582775 -0.2254502 0.3698627
-0.92628455 -0.32445672 0.84959096 -0.2137521 0.63331944 0.5280069 0.9528256 0.68393564
-0.3492271 -1.2206776 -0.303439 -0.47445047 -0.65455484 -0.67800945 0.93912524 -0.82272846

arith.constant1 f4 [22]
00000000: 4670 44bf a07f 9540 bdf9 e2c0 b37e c340
00000010: 97f3 3a40 66b6 1141 d981 b240 4731 8b40
00000020: 1b2e be3f 842e 2741 4535 66bf dc4c 3741
00000030: 5ca8 75c0 bb26 4241 9635 1341 2c52 7340
00000040: 231a 6d40 1afe 4f40 1bc4 9d3e 8f17 91bf
00000050: 0472 6840 d5c0 5abf
-0.76733816 4.671829 -7.0929856 6.109216 2.9211175 9.107031 5.5783505 4.3497653
1.485782 10.448856 -0.8992503 11.4562645 -3.8384008 12.134456 9.2005825 3.8018904
3.7047203 3.2498841 0.3081368 -1.1335315 3.631959 -0.8545049

arith.constant2 f4 [32, 32]
00000000: ed74 df3e eae4 ea3c 70c4 b93e eaeb 52bf
00000010: 35f4 b43f aca4 e3be c1e5 a4c0 a9c8 e63e
00000020: d75d 013f d073 6fbf 8191 18bf e395 b0be
00000030: 7861 0cbf 75ca e53e 2d47 913e 3c4f dbbf
00000040: 271d 5a3f 8c9a c6bd c875 ebbe cc14 893f
00000050: 1f0d fc3f 98d0 97bf 8289 10c0 e037 a1bd
00000060: 05e9 49be 6a9c 0fc1 a736 133f ec47 38c1
00000070: 5d79 8d3f 587f 1abf b3f4 393e 0550 aa3f
00000080: 6b5d 9fbf fe19 aebe de40 343f 3169 7b3f
00000090: a6de 9ebf 0dba d4be 871b 05c1 b66e 423f
000000a0: e755 03bf ede7 ae3f e8f5 c9bf a40a 19bf
000000b0: d9c6 5abd 5344 4dbe 498d a2be 42fe 9ac0
000000c0: b230 3a3d ba35 bebe 4610 a8bc a81f 34c0
000000d0: a8e5 9d3e fef6 adbc 2ca0 55bd 2c95 debe
000000e0: 6f11 a0be 4631 0dc1 a85f a33e 256d 13c1
000000f0: 8fae b33e 7308 86bf b6a8 92bc 2747 04bf
00000100: 36f8 aa3e 8339 cc3f a487 963f 3c9c 623f
00000110: 7780 0abd 1240 593e 7ee8 84c1 aa96 c2bc
00000120: 8843 e23e 77fb 1dc0 5f22 0740 bcd9 6cbe
00000130: da69 ac3e eabd 80bd af1e 98bd fefe 313f
00000140: d7a7 453e 83cb a03c 40cb 0abe 6ed1 21be
00000150: 2b65 3fbe ff55 13c0 56d4 56bf bbfd 5cbe
00000160: a8da 2a3e bbd6 f1c0 a514 6b3f 9b1d 14c1
00000170: 1d36 febe 085e 2e3f 2d98 8b3f d086 85be
00000180: ec1b 2d3f e527 cabe bd71 7e3e 1769 a63f
00000190: 501e 123f 1ef6 65bf 4bb1 48c0 db46 6abe
000001a0: 121b 52be d133 6fbc eeee 6b3f 85b6 27bf
000001b0: d759 9ebe 9283 963d 9d70 1fbe 6e34 60bf
000001c0: 97f2 06bf b353 e8be 7f62 87be 2ec1 92c0
000001d0: 1d61 943e 1ad6 c23e e19c 6b3f 7c3b 90bf
000001e0: 155c fc3d dd68 eebf 7207 c73e a6ec 90c0
000001f0: f4b1 62bf 30ac 04bf 938b 14c0 bdaa b33f
00000200: 9192 5c3f f65e 1dbf 0896 38c0 3ed6 4b3f
00000210: c549 cf3e 4820 0e3f e0ff 3ac0 2db6 6bbe
00000220: e802 6d3e 032d 963e fd29 3dc0 0720 9abd
00000230: 62f6 033f 7c30 863d 9af8 1d3e da78 ea3e
00000240: 9fd1 24c0 9f62 0d3f 854e e43d 1dfc fcbf
00000250: 9f00 adbf 5d26 debe dd85 bcbf beec 54bf
00000260: b203 aabe 2448 e8c0 4533 08bd 9cce dfc0
00000270: a0a9 a7be 1735 babe 22fe dfbe 5c99 4d3f
00000280: 72a1 723f c5dd a0be bbdf 0b3f 3df9 5a3f
00000290: 1b01 a13f 8726 5ebf 2f61 a2c0 a369 873d
000002a0: 5113 ab3e 38c1 e4be 132b 9bc0 a138 05bf
000002b0: 4d41 223c f0fa be3d 8b90 28c0 03af 92be
000002c0: b66a c73e a0a1 0c3e 767d 3abe cd4f c2be
000002d0: 7ffd 2dbf d23c a3be 115a d3be 79b6 68be
000002e0: 8a41 09be 83cd 0940 e9eb a9be 4fa7 33c1
000002f0: 703e 48bd f5d3 e23d 3777 afbe 9f0d 00be
00000300: d8da 093f 6abe 743e e782 42be 80e8 ffbf
00000310: 85b7 e83e 17c0 aebe 25b3 fdc0 0a39 733e
00000320: 30a3 303f 647d be3f 79cc 10be f3d8 553f
00000330: 281a afbe be5d 1cc0 e0f5 ffbe 2e10 cac0
00000340: bbed 49be e104 d9be 4bbe 1d3d 6308 c53f
00000350: cb34 663f 4ab6 5a3e e036 f8bf df41 72bf
00000360: 3e34 38bf c8a1 04c1 f186 c73e 6e3d e9c0
00000370: acb6 59be 6d7e 093f 7499 97bf 63a9 d3bd
00000380: 2b02 d93e ee87 a1bd 39d9 43be 7ef4 a0be
00000390: 7246 ab3e ec4e 59bf 486b bbc0 b79e e0be
000003a0: 4b56 53bf ee5b 033e 6fa7 1140 8612 bc3f
000003b0: df6a b13f fbb5 97be d074 b0bf e7a0 553f
000003c0: fc96 213f e739 c63e 18e0 1bbb 61f1 38be
000003d0: e4f0 d6bc 31af 743e 6f1b 71bf e03b 54be
000003e0: 444c 903f 0eb2 c1c0 4c6f 02be 7a1a bebf
000003f0: 655c fcbd 769d 9e3f c8e6 53bd 8a45 c3bf
0.43643895 0.028673608 0.36282682 -0.82391226 1.4137026 -0.44461572 -5.153046 0.45074967
0.50533813 -0.9353609 -0.5959702 -0.34489354 -0.54836226 0.44881025 0.28374615 -1.7133555
0.8520073 -0.09697446 -0.45988297 1.0709472 1.9691504 -1.1860533 -2.2583928 -0.078719854
-0.19717796 -8.975687 0.5750527 -11.517559 1.1052662 -0.6035056 0.18159752 1.330567
-1.2450384 -0.34004205 0.7041148 0.98207384 -1.2411697 -0.41548195 -8.319221 0.7595018
-0.5130295 1.3664528 -1.577817 -0.5978186 -0.053412292 -0.20045595 -0.31748417 -4.8435373
0.045456596 -0.37150365 -0.020515572 -2.8144321 0.30839276 -0.02123594 -0.052154705 -0.43473184
-0.312633 -8.82453 0.31908917 -9.214147 0.35094115 -1.0471328 -0.017902713 -0.5167107
0.33392495 1.5955051 1.1760144 0.88519645 -0.03381392 0.21215847 -16.613522 -0.023753483
0.44192147 -2.4684732 2.1114728 -0.23129934 0.33674508 -0.06286223 -0.074277274 0.6952971
0.19302307 0.019628292 -0.13554096 -0.15802547 -0.18690936 -2.3021238 -0.8391775 -0.21581165
0.16684973 -7.557462 0.91828376 -9.257228 -0.4965066 0.6811223 1.0905815 -0.26079416
0.6762073 -0.39483562 0.24848075 1.3000821 0.57077503 -0.8982867 -3.135821 -0.22878592
-0.20518139 -0.014599756 0.9216145 -0.6551288 -0.30927917 0.07349314 -0.15570302 -0.8758
-0.5271391 -0.45376357 -0.26442334 -4.5860815 0.28980342 0.38053972 0.92036253 -1.1268153
0.12322251 -1.8625752 0.38872868 -4.5288877 -0.88552785 -0.5182524 -2.321019 1.403648
0.8616114 -0.61473024 -2.8841572 0.7962378 0.4048597 0.5551801 -2.9218674 -0.23018713
0.2314564 0.29331216 -2.9556878 -0.0752564 0.51547825 0.065522164 0.15426865 0.45795327
-2.5752943 0.5522861 0.11147789 -1.9764439 -1.3515815 -0.43388644 -1.4728352 -0.8317374
-0.33205944 -7.258806 -0.03325202 -6.993971 -0.327466 -0.3636863 -0.43748575 0.8031213
0.94777596 -0.31419197 0.5463826 0.8553656 1.2578462 -0.8677754 -5.074363 0.066119455
0.33413175 -0.44678664 -4.849008 -0.52039534 0.009903264 0.09325206 -2.6338222 -0.28649148
0.389486 0.1373353 -0.18211922 -0.37951508 -0.6796493 -0.3188234 -0.41279653 -0.22725858
-0.13403907 2.1531684 -0.33187798 -11.228347 -0.04888767 0.11075584 -0.3427064 -0.12505196
0.53849554 0.23900762 -0.18995248 -1.9992828 0.45452514 -0.34130928 -7.928118 0.23752227
0.68999004 1.4882016 -0.141405 0.83534163 -0.34199643 -2.4432216 -0.49992275 -6.314475
-0.19719593 -0.42386535 0.038511556 1.5393184 0.89924306 0.213586 -1.9391747 -0.9463176
-0.71954715 -8.289497 0.3897014 -7.2887487 -0.2126109 0.53708535 -1.1843705 -0.10335042
0.42384467 -0.07887255 -0.19125833 -0.31436533 0.33452183 -0.8488605 -5.856846 -0.4387109
-0.8255355 0.12828037 2.2758443 1.4693153 1.386074 -0.29631028 -1.3785648 0.8344864
0.6312101 0.3871605 -0.0023784693 -0.18060829 -0.026237912 0.23894955 -0.94182485 -0.20725965
1.1273274 -6.052985 -0.12737769 -1.485183 -0.1232231 1.2391803 -0.051733762 -1.5255597

arith.constant3 f4 [32]
00000000: 22e9 c13e 0473 3840 5291 423f 8ba1 2a40
00000010: 25cd 0140 2756 b13f e4a2 8e3f fa8f 943f
00000020: 9c44 cb3f abcc 5240 8f87 1e3e 69b6 0040
00000030: 8b8f e43f 07c3 903d 0e17 1740 7aa7 da3f
00000040: fd2e 0040 3cd2 bc3f 12f8 d63f f863 0740
00000050: 637f 2340 8d64 c23f 98bc 873f 433d a43f
00000060: 1f79 c43e 82e5 1040 5bde 0840 8f48 d93f
00000070: 0deb ed3f 8e7a e33f 02fa 983f 682a 1c40
0.3787318 2.88202 0.7600299 2.6661098 2.028146 1.3854417 1.114346 1.1606438
1.5880313 3.293742 0.15481399 2.0111334 1.7856306 0.070684485 2.3607821 1.708236
2.002868 1.4751658 1.6794455 2.1154766 2.55465 1.5186936 1.0604429 1.2831196
0.38373658 2.264008 2.1385715 1.6975268 1.8587357 1.7771776 1.1951296 2.4400883

arith.constant4 f4 [32, 64]
00000000: 9687 523d 8c1f 0b3e 1307 ed3d a9b9 f03d
00000010: 44af 13be 23cc 8a3d 0b52 093d beef 45be
00000020: 44fe 1f3e 3abe ee3e 96c9 0cbe f33b 81be
00000030: fd31 153d cd18 9a3e f22a 19be 6c6e 13be
00000040: 0256 c6bd dba6 073e 94dc 2bbd bc6d 3a3e
00000050: bf51 4d3e f6f9 1d3f f0a3 70bd a0f9 763e
00000060: d64c 853e 33f5 163e 3819 15bd 4511 a33d
00000070: 6970 0cbd 3c4a fbbd c40c 1ebe 139e f43e
00000080: ea74 88bc 811b 1b3f b2b2 4dbd eea2 ddbc
00000090: 5fde 6a3e 7f16 e3be d9f6 babd d9d4 f3bd
000000a0: ecca c53d 6592 8c3e 9fbc 18bf 22fe e0be
000000b0: 3ea6 6a3d cde8 90bd 316a 423f d0e6 ebbe
000000c0: b8c2 4fbe 9084 443e dfa3 c53c 9806 41be
000000d0: 488d cc3d 1c79 6fbe 1579 763d 96e3 a13e
000000e0: 4a09 fb3d 67c5 aebd 9478 69bf 3146 463e
000000f0: bc99 4bbf 8eed 96be 8c12 053e bfe1 11bf
00000100: f39b 523e c30d 13bf 81b1 44be f190 febd
00000110: 09fb 393e 7810 923e 7f4f c03d ccbc 343e
00000120: be60 7c3e cc51 823e ca79 813d 36b0 77bd
00000130: 9dd3 6e3e 4eb4 0f3e 72a1 3dbe 38ef 283d
00000140: abb7 50bc 34da 9e3d ec1e 3a3e fbad bf3e
00000150: ab5c b1bd 5543 923e c9ea 12be ed17 6a3e
00000160: 57d4 743e 2a29 82be c1d4 763d 4773 19be
00000170: 91b8 14bf e919 ae3e 2be9 76bd 3389 5cbc
00000180: ac04 8dbd b70c 03be bb45 263f 9fb6 793e
00000190: bbb5 57bd 02d7 973d fc7c 35bd 787f 92be
000001a0: d70a babe 8136 4b3f 46cd 493e 0977 a7bd
000001b0: 9662 0f3e b813 00bd 52c4 5dbf 68fa fbbd
000001c0: 8001 d0bc 1839 993e b18a ba3c d2fc 023e
000001d0: 82c6 9a3e 448e f33e cc8e bd3e c7ca aabd
000001e0: 04cc a63c fc2f ccbb e1f1 a5be 8f9a aebe
000001f0: 0338 a53e 7087 19be 35ac 073e dea3 bb3e
00000200: cb04 453d ddab 33bd 8b9e 113c 707b 07be
00000210: 90bc 8a3d 205f b03c f091 e33d 03e5 5fbd
00000220: 8eb8 13bd 7592 1d3f 384f f83d 6ec0 193e
00000230: 5f59 d13e 2698 2c3e f7b0 3bbf d1ca be3e
00000240: 920e ccbe 0c5b bebe 1034 90be 11e6 f23d
00000250: d0a2 88be 8f99 b63e 3ca0 503e 72e9 0f3f
00000260: 1605 5bbe 0a66 aa3d 2474 c73e 72d3 a6bd
00000270: 53eb d7be e115 903e 669f bd3d f40e ce3d
00000280: 61d8 4e3e 5122 4dbd 0771 c83e 6689 603d
00000290: bfc6 953e 69b9 63bd 2a84 88bd 7f1f cfbe
000002a0: d9e7 c7bd db2f 7d3e e23b f83d 3be2 a2be
000002b0: 0f27 82be 3ab6 9e3e 2abf 43bf ea10 49be
000002c0: eafb b43c c7b8 963d f10d 09be 52f1 a53e
000002d0: 276e 893d d38e 093f b2d7 623e 8a60 863e
000002e0: 9a13 503e 747d 2ebe c893 ddbe 2636 98be
000002f0: d7dc b73e 487d 2e3a fac4 283d 22ed b53e
00000300: 0388 72be a08b 05be dcf5 54bd d833 e8be
00000310: 40a2 053e 8bd2 6b3e 36f7 f4be 16e0 5a3e
00000320: 4243 1f3e 096a 7bbe ef06 c33c a07d 33be
00000330: d7ee 1abe 0cc6 b1bc 8aa6 b9be cd1b 44be
00000340: 9d22 14bf 3eee fb3c 49e1 39bf c438 12bf
00000350: f40b 97be 78d3 603d 54cc 80bd 6e7e 193e
00000360: b27f 25bf fce9 a03c 8680 f2b9 d44b 33bf
00000370: b3e4 1d3e 4042 ecbd e84e 343d 4609 a43e
00000380: a21b c1be c832 11be 5ef7 983d df59 07be
00000390: 41af 1bbb e432 003d ac69 8e3e 3ef8 913c
000003a0: b629 f53d 9557 13bf f21d 103e 5f22 3fbe
000003b0: 19ac c13e 069a 87bd 510a 303f 91ca 03be
000003c0: 5b61 f73d a5b4 873e 168b 0c3c e473 94bd
000003d0: 383b 83be 0b72 b7bc ec21 e53c 2927 e3bd
000003e0: f8e7 113d d8c4 9f3e d836 e5bc 1bfa 893e
000003f0: 2b57 d4be 1c52 99bd f9a6 e3be a1bf 8cbd
0.051398836 0.13586253 0.11573615 0.11754162 -0.14422327 0.06777217 0.033525508 -0.19329736
0.15624338 0.46629506 -0.13748774 -0.2524105 0.036424626 0.30097046 -0.14957789 -0.14397591
-0.096843734 0.13247244 -0.041958407 0.18205923 0.20050715 0.61709535 -0.058750093 0.24118662
0.26035184 0.14741974 -0.036401004 0.07962278 -0.03428689 -0.122700185 -0.15434557 0.4777685
-0.016657311 0.6058884 -0.050219245 -0.02705523 0.2293639 -0.443531 -0.09129114 -0.11905832
0.09657845 0.2745544 -0.5966281 -0.43943888 0.057287447 -0.07075653 0.75943285 -0.46074533
-0.20289123 0.19191194 0.024125991 -0.18850172 0.09987885 -0.23386043 0.060174067 0.31618947
0.12257631 -0.08533745 -0.9119961 0.19362713 -0.79531455 -0.29478115 0.12995356 -0.56985086
0.20567302 -0.57442874 -0.19208337 -0.12429989 0.18162169 0.2852819 0.09390163 0.17650145
0.24646279 0.2545303 0.063220575 -0.060470782 0.23322912 0.14033625 -0.18518618 0.04124376
-0.012739102 0.07756463 0.18175858 0.37437424 -0.08660253 0.28566995 -0.14347376 0.2286069
0.23909126 -0.2542203 0.06026149 -0.14985381 -0.58094126 0.34004143 -0.06028096 -0.013460445
-0.06885657 -0.12797819 0.6495015 0.2438607 -0.052663546 0.07414056 -0.044308648 -0.28612876
-0.36336395 0.7938004 0.19707212 -0.08177001 0.14002451 -0.031268805 -0.86627686 -0.123036206
-0.02539134 0.29926372 0.022771211 0.12791756 0.30229574 0.47569478 0.37023008 -0.08339458
0.020360954 -0.006231306 -0.324111 -0.34102294 0.32269296 -0.14993072 0.13249286 0.36648458
0.048100274 -0.043865073 0.008887897 -0.13230681 0.06774247 0.021529734 0.1111182 -0.054661762
-0.036064677 0.615516 0.12124485 0.15014812 0.40888497 0.16854915 -0.733169 0.37264112
-0.39854866 -0.37178838 -0.2816472 0.11860288 -0.26686716 0.3566403 0.20373625 0.56215584
-0.21388659 0.08320244 0.38955796 -0.08145799 -0.42171726 0.28141692 0.092589185 0.10061446
0.2019973 -0.050081555 0.39148733 0.054818533 0.29253194 -0.055596743 -0.06665833 -0.40453717
-0.09761018 0.24725287 0.12120797 -0.31813225 -0.25420424 0.30998403 -0.7646357 -0.19635358
0.022092778 0.07359462 -0.13384224 0.32410675 0.06710463 0.5373356 0.22152594 0.26245528
0.20319977 -0.17040044 -0.4327681 -0.29728812 0.35910675 0.00066562416 0.041203476 0.3553248
-0.23684697 -0.13041544 -0.051992282 -0.45352054 0.13050175 0.23029535 -0.47844857 0.21374545
0.15553 -0.24552168 0.023807017 -0.17528391 -0.15130173 -0.021700881 -0.36259872 -0.1915123
-0.57865316 0.030753251 -0.7260938 -0.5711787 -0.29501307 0.054889172 -0.062889725 0.14989635
-0.6464797 0.019642822 -0.00046253594 -0.7003758 0.15419273 -0.11536074 0.044020563 0.32038325
-0.37716395 -0.14179528 0.074690565 -0.13217877 -0.0023755583 0.031298533 0.27814996 0.017818566
0.11970846 -0.57555515 0.14073923 -0.18665455 0.37826613 -0.066211745 0.6876574 -0.12870242
0.12079116 0.26505008 0.008578083 -0.07248667 -0.25631118 -0.022393247 0.027970277 -0.110914536
0.035621613 0.31204867 -0.027980253 0.26948628 -0.41472754 -0.07486364 -0.44463328 -0.06872488

arith.constant5 f4 [32]
00000000: 65ea 503d 207f b9be 396e c0be fbb6 873d
00000010: 651a c33e 6fc1 f5bd d64e aebd 4785 e73d
00000020: 0812 3cbd 04e0 5ebe 6b5a b2be 8054 a63e
00000030: 903b 6dbe e867 473d 0510 e6bd a70b 5b3e
00000040: b449 7dbe 5600 883e c344 3ebe 052f e1bd
00000050: 73c6 e63a 8496 bd3e fa81 283e 712a 5a3e
00000060: dc9e 32be 9e0e 88bd 3539 adbe ed5f fdbd
00000070: f1b1 473e daac 113e a9cf 1dbe bc53 e0bd
0.051004786 -0.362298 -0.37584093 0.06626698 0.38106075 -0.11999785 -0.085111305 0.113047175
-0.045915633 -0.21765143 -0.34834608 0.32486343 -0.23167253 0.048683077 -0.11233524 0.21391164
-0.24735147 0.26562756 -0.18580918 -0.109952964 0.001760675 0.37028897 0.16455832 0.21305253
-0.17443413 -0.06643413 -0.33832708 -0.12371812 0.19501473 0.14226094 -0.15411247 -0.10953471

arith.constant6 f4 [64]
00000000: da11 d8bd a495 a7be c3b6 94be dfcf 37bd
00000010: 5589 143e f7f4 4cbe e38d b1be 16c5 dbbe
00000020: 0499 1fbc efa7 02bf 4d71 ea3d adb9 9abe
00000030: b16c 83be 6f5e 83be 005c a2be 144e a1be
00000040: 6936 38be edfe c5be c666 a23e 4e4a 3ebd
00000050: 179a 6dbe 9089 e9be b77b 913d 3c8a 9dbd
00000060: dd4f 5bbe 31bc 8cbe d605 95bc 129e 1ebe
00000070: 5c09 0dbe dff1 09bf 78d1 eb3d df52 883e
00000080: 041e 86be 9bc5 f4bc 1dd2 a83c 73cb 9cbe
00000090: a47a 9bbe 8d31 8c3b e7dc 29be b8f2 76bd
000000a0: 6317 94be 523c b4be cb89 40be 47bc 6abe
000000b0: b5e7 77be 3c63 65be 442e 14bf 8314 a1be
000000c0: e877 71be 3424 87bd 32e9 8bbe 2622 e3bd
000000d0: 9fe0 25be e03f 09bf f2cc f4bc 4508 e1be
000000e0: 0d89 9f3c d918 84be 284e c2be 4036 b9be
000000f0: f385 d0be 9c3f 853e 484d 16be cab3 49be
-0.1055028 -0.32731354 -0.29045686 -0.044875976 0.14505513 -0.20015322 -0.34678563 -0.42923802
-0.009741072 -0.51037496 0.11447392 -0.30219784 -0.25668862 -0.25657985 -0.31710815 -0.3150488
-0.17989506 -0.38671055 0.31719035 -0.04645758 -0.23203312 -0.45612764 0.07103675 -0.07692382
-0.21417184 -0.2748733 -0.01819126 -0.15489987 -0.13773102 -0.5388469 0.11514562 0.26625726
-0.26194775 -0.029879382 0.020608002 -0.3062397 -0.30367005 0.004278368 -0.16588174 -0.06029007
-0.28924093 -0.3520227 -0.18802564 -0.22923385 -0.24209483 -0.22401136 -0.57883096 -0.31460962
-0.23580897 -0.06598702 -0.2732635 -0.11090498 -0.16198967 -0.5361309 -0.029882882 -0.43951622
0.01947453 -0.25800207 -0.37950253 -0.36174202 -0.40727195 0.26025093 -0.14677918 -0.1969749

sequential_1_1/dense_4_1/MatMul f4 [64, 7]
00000000: 6317 fbbd cdfa f4bc a314 b23e 2201 35be
00000010: c902 fe3e a960 df3d 5ae5 8b3e bea1 13be
00000020: caa2 f0bc 1c85 713e efe7 513d ec7f b4be
00000030: 625a c13e a7af 363e 92cc bebe 3a5d 1b3d
00000040: b1e6 163d ea83 613e bc56 993e 1c93 88bc
00000050: 85f1 32bd 6f3f e83d bd70 fd3e df98 953e
00000060: 3825 fe3d d9fd d63e b172 293e 786d 6a3e
00000070: 1cef 873e fb1e dd3e 711a aabc 75a0 62bc
00000080: 8e77 84be 9983 03be de52 2d3e 9e9e 5f3e
00000090: e5ac c73d c8d0 f33e e1ba 5b3e e84d 543e
000000a0: e61e acbd 627d 9abd 4184 57be d355 9abe
000000b0: c96e d43e 3471 e13d 893c bdbe 9991 d1bd
000000c0: 2e0b b8be ab0c 263e 0702 24be 38f9 cebe
000000d0: a7ff 1fbe 108b ac3e 3ec5 33be 131f 503e
000000e0: 45d1 1dbb 69a9 b83e 0ae3 67be b4c9 c93b
000000f0: 0ac0 113f 3d9b bc3d b9f8 c5be c2ce 64be
00000100: 67e9 313e c78a 0e3e 1a7d 1fbe c5aa 08bf
00000110: 39d5 a33d 2dfc 05bf 6c99 943e e67e 69bd
00000120: b5e5 173f 16cb ceba 1db7 3fbe e657 d63d
00000130: 382b 363d fa22 00be 6f04 313e 4595 063f
00000140: e6ff d23d 34a8 bebd dc56 f33c eba2 d5be
00000150: f7d0 df3d d36f 13bd 1479 fb3e 12fe fdbd
00000160: fc18 9ebe 7905 20be b67a ff3e 4253 a73e
00000170: 25fb 41be e7d6 39be 5758 04bc 30fb 903d
00000180: 208a 033c 4e9a a03e 7cdd a73e 94c8 313d
00000190: df5c d93e f31c ecbd 610e 5ebf d025 02bd
000001a0: a52a 893e d5f2 e2bd 82c9 c3be 0649 d4be
000001b0: 2541 e3bc caaf 83bd d595 363e c36c 8a3e
000001c0: ba33 30be f17e 003e e077 3ebe 7b88 183e
000001d0: 61a4 233f 8e86 b8be 5d15 1a3e 1a79 34be
000001e0: 2d87 ebbe 9bde 0a3e a45e 253e bde8 49be
000001f0: e828 24bd 42fb 9dbe 155e 603d d086 a4be
00000200: d51b dd3e d773 5ebe c821 84be ef64 b2bc
00000210: a710 473e a53b 4e3d 02cc 26be 0258 0fbf
00000220: d4ae f8bd 4626 2ebd 12e9 dabd 75a1 7d3e
00000230: 2ff1 053f c5e1 a6bd fe02 e7be 91be 74be
00000240: 3be1 cabe de16 8e3b 0edb 773d c402 6cbe
00000250: 2169 4a3c 75a1 33be c2a6 a0b9 2903 ce3d
00000260: 533d 1dbe bd4f 43bf 9095 87be 7f04 8d3e
00000270: 0bb8 e9be 9a45 9e3d 9a3f c33e 909f 9abd
00000280: f96f 9e3e f05b 8cbe a775 64bd 3f6b 5abe
00000290: 219b e63d d15a aa3d 2c42 18bf caf0 a93d
000002a0: 0655 f4bd 3057 813e a828 46be 7e31 ce3d
000002b0: 8e25 563f 4997 413e a038 643e 21f8 053e
000002c0: dff5 803e 8689 3bbe 794a c3be be14 00bc
000002d0: 2226 cc3d 15fa 37be 8743 073e 2e83 c4bd
000002e0: 9593 02bf 804f 4ebe a679 eebd f750 f3bb
000002f0: cf12 f9be cc15 b9be fb2c 3a3e a2bd 94be
00000300: ebe0 113e 726c 5fbe 03cd 5bbe 0cca 173f
00000310: 3cca 17be 7835 ae3e f08d a1be 4d4f cb3e
00000320: 3d3d 103d d1e7 463c 5465 633c eeea e2bd
00000330: 0fbe 35be 2d6c e03e 22ae 153d 0e1c c63e
00000340: 7b60 12be 7a4d 153f e490 fa3d b07c 533e
00000350: b225 0e3e 4ec8 643c c180 3abe 0645 463e
00000360: 5d21 a33c 2377 35bd 35d4 983d 173d 85be
00000370: 097c 68be 1fde 843d 5bd3 86bc 277d a43e
00000380: e6e9 903e 982d 433e 5f71 a6be 65d0 8ebd
00000390: e858 303e 1559 c2be 3f9c e53d e65c 1d3e
000003a0: 8ed9 a4bd d73e 8d3e 325a 6a3d 4f0d cabd
000003b0: e802 a83d 3977 d73e 7d30 9b3c f675 0d3e
000003c0: b61a b9bd 8767 0a3f ecbb 643e d771 ffbc
000003d0: ea35 db3c ea05 0cbe f69c 4b3e 84a3 723e
000003e0: acfd 803e a38f 97be 5634 acbc 9b4c 41be
000003f0: 1272 003e e691 203e 2b22 063e 5226 c53d
-0.1226032 -0.029904747 0.3478137 -0.17676213 0.496115 0.10907108 0.2732342 -0.14417168
-0.029374499 0.23585933 0.05124658 -0.35253847 0.3776427 0.17840444 -0.3726545 0.037930705
0.0368411 0.22022977 0.29948986 -0.01667171 -0.043687362 0.11340224 0.49500075 0.29218194
0.12409443 0.41990545 0.16547658 0.22893322 0.26549613 0.431877 -0.020764561 -0.013832201
-0.25872463 -0.1284317 0.16926143 0.21837851 0.09749774 0.47620225 0.21458007 0.20732844
-0.08404331 -0.07543446 -0.21046545 -0.30143604 0.41490772 0.1100792 -0.36960247 -0.10232849
-0.3594603 0.1621577 -0.16016398 -0.40424514 -0.15624867 0.33699846 -0.1755571 0.20324354
-0.0024081033 0.3606675 -0.22645202 0.006158078 0.56933653 0.09209297 -0.38666323 -0.22344497
0.17374192 0.13920127 -0.15575066 -0.53385574 0.07999653 -0.52337915 0.29023302 -0.057005785
0.5933488 -0.0015777077 -0.18722196 0.10465984 0.04447481 -0.12513342 0.17286848 0.5257152
0.10302715 -0.09309426 0.029704504 -0.4172586 0.10928529 -0.035995316 0.49115813 -0.12401976
-0.30878437 -0.15627088 0.4989831 0.32680708 -0.1894346 -0.18148385 -0.0080777025 0.0707916
0.008028537 0.31367725 0.32786167 0.043404177 0.42453668 -0.11528959 -0.8674069 -0.031774342
0.26790348 -0.11081473 -0.38239676 -0.41461962 -0.027741024 -0.064300135 0.17830594 0.27036104
-0.17207232 0.12548424 -0.18600416 0.14895813 0.639227 -0.36040157 0.15047212 -0.17624322
-0.46001568 0.1356148 0.16149384 -0.19717689 -0.040078074 -0.30855757 0.054777224 -0.32134104
0.43185297 -0.21723877 -0.25807023 -0.021776645 0.19439946 0.05034985 -0.1628876 -0.55993664
-0.12142721 -0.04251697 -0.10688986 0.24768622 0.5232114 -0.08148531 -0.4511947 -0.2390082
-0.39624962 0.004336222 0.06051164 -0.2304793 0.012354166 -0.1754206 -0.00030641822 0.100591965
-0.15355425 -0.76293546 -0.26481295 0.27542493 -0.45648226 0.07728119 0.38134462 -0.075499654
0.30944803 -0.27413893 -0.055776265 -0.21329974 0.11260057 0.08318103 -0.5947597 0.0829788
-0.119302794 0.2526183 -0.19351447 0.10068034 0.83651054 0.18905367 0.22287226 0.13082935
0.25187585 -0.1831418 -0.38142756 -0.007817445 0.09968211 -0.17966492 0.13209353 -0.09595333
-0.5100644 -0.20147514 -0.11644296 -0.0074254232 -0.48647162 -0.36149442 0.18181221 -0.29050928
0.14245956 -0.21818712 -0.21464925 0.59292674 -0.1482324 0.34025168 -0.31553602 0.3970894
0.03521465 0.01214023 0.013879139 -0.110799655 -0.17748283 0.43832532 0.03654302 0.3869328
-0.14294617 0.58321345 0.12234667 0.20653033 0.13881567 0.013963772 -0.18213178 0.19362268
0.01991337 -0.04430307 0.0746235 -0.2602317 -0.22703566 0.06487679 -0.016458204 0.32126734
0.2830345 0.19060361 -0.3250837 -0.06973342 0.17221415 -0.3795859 0.11211442 0.15367469
-0.08049308 0.27587005 0.057214923 -0.0986582 0.08203679 0.42083147 0.01894402 0.1381453
-0.09038298 0.5406422 0.22337312 -0.031182213 0.026759107 -0.13674131 0.19884095 0.23695189
0.25193536 -0.29601774 -0.02102105 -0.18876879 0.12543514 0.15680656 0.13098972 0.0962645
